game_of_life/game_of_life.onnx (onnx, 28296 bytes, 5 tensors)

sequential/dense_1/Tensordot/ReadVariableOp:0 f4 [100, 1]
-0.2956674 -0.36635932 0.19264899 0.32676807 0.17833754 0.32532316 -0.19149484 -0.2634523
-0.31966215 0.36197913 0.31051448 0.20081607 0.26951954 -0.26782888 -0.33549675 -0.30626446
0.32612693 0.15879928 -0.17455944 0.19027096 0.15911646 -0.29818818 -0.32783306 0.25672397
0.2755602 -0.19225548 -0.20998159 -0.18198045 0.20632124 0.37428257 0.17299062 -0.34729248
-0.24609792 -0.22387044 -0.3528092 0.26536238 0.18766265 -0.16017446 -0.31159133 0.37639695
0.27269387 -0.34697285 -0.33478433 0.3441107 0.13521805 -0.32247773 0.17958958 -0.38026673
0.3634949 0.30317253 0.1663252 -0.31906477 -0.23465468 0.157244 -0.2577485 0.24401711
-0.14466912 0.15934739 0.34669366 0.27458894 0.26786363 -0.29323682 0.29455644 0.3753362
-0.32883272 -0.28521398 0.2747604 -0.21546324 -0.1880325 0.33924153 0.34251487 -0.20613113
0.296113 -0.3180475 0.21921477 -0.28117198 -0.1805642 -0.19249171 0.27177134 0.33369845
0.26491842 0.2656522 -0.27642033 0.18975478 0.3474841 0.3441041 0.2561344 -0.17265739
0.3178401 -0.16151907 0.37168506 0.36286896 0.21051736 -0.31768346 0.19547966 -0.28573602
-0.3707753 -0.31120202 0.14497782 0.31403983
00000000: b861 97be 7393 bbbe c745 453e 254e a73e
00000010: 1e9e 363e c290 a63e 3917 44be 38e3 86be
00000020: c2aa a3be 5455 b93e c1fb 9e3e baa2 4d3e
00000030: 77fe 893e de20 89be 3bc6 abbe b2ce 9cbe
00000040: 1cfa a63e 479c 223e b6bf 32be 64d6 423e
00000050: 6def 223e 1fac 98be bcd9 a7be 5371 833e
00000060: 3a16 8d3e 9fde 44be 6a05 57be 1559 3abe
00000070: e045 533e f7a1 bf3e 7424 313e 52d0 b1be
00000080: 1801 7cbe 4b3e 65be 68a3 b4be 94dd 873e
00000090: a32a 403e c604 24be e688 9fbe 1ab7 c03e
000000a0: 889e 8b3e 6da6 b1be da68 abbe 472f b03e
000000b0: 9a76 0a3e cd1b a5be 55e6 373e 52b2 c2be
000000c0: 011c ba3e 6e39 9b3e 2751 2a3e 755c a3be
000000d0: 5149 70be 9204 213e 9df7 83be 9fdf 793e
000000e0: 2424 14be f62b 233e d581 b13e ec96 8c3e
000000f0: 6c25 893e 2323 96be 1ad0 963e 112c c03e
00000100: c35c a8be 9107 92be 65ad 8c3e 65a2 5cbe
00000110: 978b 40be 11b1 ad3e 1c5e af3e 0a14 53be
00000120: 209c 973e 1fd7 a2be d679 603e c6f5 8fbe
00000130: d2e5 38be 8c1c 45be 9d25 8b3e 86da aa3e
00000140: 63a3 873e 9103 883e f786 8dbe 144f 423e
00000150: 70e9 b13e 6a2e b03e 0c24 833e 19cd 30be
00000160: f0bb a23e 4165 25be 814d be3e f6c9 b93e
00000170: dd91 573e 68a7 a2be d22b 483e fe4b 92be
00000180: 43d6 bdbe df55 9fbe 1175 143e d4c9 a03e

sequential/dense/Tensordot/ReadVariableOp:0 f4 [50, 100]
0.21848239 -0.018215364 -0.1871215 -0.05350048 -0.1460358 -0.24648818 0.02424788 0.21954222
0.29392758 -0.1818169 -0.1740471 -0.009547636 -0.1721616 -0.09102183 0.19352025 -0.056083243
-0.012426945 -0.054741018 -0.057341177 0.042114932 -0.19841762 0.08454033 0.26681587 0.06972969
-0.21119584 0.22017284 -0.035226982 0.08701444 -0.25097266 -0.03452267 -0.30339894 0.29769444
-0.07046898 -0.033706922 0.076717764 -0.25268677 -0.15305848 0.12845936 0.074545614 -0.00744697
-0.25292757 0.13762563 0.17114691 -0.08600712 -0.14711824 0.03501139 -0.21463092 -0.046793703
-0.22518285 -0.06407847 -0.22983798 -0.09356297 0.29085153 -0.07336175 0.06791801 -0.09486065
0.073745705 -0.11643164 -0.07428587 -0.29880607 -0.081691764 0.0630132 -0.14466442 -0.042031765
0.23004945 0.025994588 -0.12608008 0.008044603 -0.021438649 -0.11689573 -0.018860409 0.19624104
-0.0820116 -0.029020406 -0.13526446 0.13386524 0.12358319 -0.049307656 -0.11528204 -0.054652106
0.013954462 -0.104404956 0.1776276 -0.24573088 -0.17501764 -0.24223725 -0.023852821 0.06147738
-0.0027836375 0.052035343 -0.030032389 -0.06425691 0.07378078 0.0843483 0.01625385 0.058676228
0.21833873 0.12849458 -0.2520014 -0.27675176 0.37972403 0.2307345 -0.04818221 -0.3715089
-0.17032738 -0.3773735 0.30730343 0.41101575 0.38990325 -0.17705914 -0.10816322 -0.3233193
-0.09678999 0.2810635 0.24497084 0.07794181 -0.30150193 -0.21277678 0.45264387 -0.08173251
-0.19322205 0.10521591 0.24251404 -0.09613734 -0.12844543 0.26586872 0.30228877 0.23987706
-0.42994627 -0.2407068 -0.09200586 0.38295972 0.25725788 0.3751628 0.035548978 -0.3678058
-0.4396505 0.15068005 0.044564597 -0.25589213 -0.18656982 0.058644347 0.025366118 -0.15484568
-0.30469242 0.32394522 -0.04729774 0.38840294 -0.09789699 -0.10263009 -0.42484626 0.18439464
0.25725585 -0.21203144 0.030952796 -0.15976197 0.4267489 -0.10679212 -0.30122346 -0.22786203
-0.24342789 0.21890058 -0.1291662 -0.31862003 0.3591209 0.32455114 -0.39671665 0.3250948
0.14372271 -0.2630584 -0.049290385 0.09023427 -0.336792 0.23660974 -0.28552395 0.39314857
0.24808665 0.045002308 -0.41150483 -0.13113783 -0.36567208 -0.21194378 0.35915256 -0.12038006
-0.3562955 -0.32651085 -0.30192843 0.34952226 -0.045771692 0.10187463 -0.10678471 -0.023181243
-0.3251514 0.13890561 -0.4053088 0.18786614 0.07161027 0.41165307 -0.17390655 -0.1914497
-0.31802082 -0.119086236 0.004068572 -0.0035521465 0.27825403 0.17219882 -0.06923033 -0.25302485
0.05251115 0.07366134 0.19702242 0.16410534 0.18328989 -0.2250797 -0.094529584 -0.03973344
0.14955048 0.2265654 -0.20739758 0.050430402 0.28321093 0.05799532 -0.118800916 0.02366864
0.2874546 -0.25025958 0.067909196 -0.07868921 0.32724842 0.30601904 0.20021139 -0.14620626
0.067206 -0.21683332 -0.27466783 -0.037651118 0.18919823 -0.08948206 -0.25819683 0.30752736
0.18224984 -0.32995266 -0.29486194 0.31544247 0.000588957 -0.27081674 -0.049023148 -0.054025333
0.28629744 0.20691416 0.11432635 -0.3214258 -0.22482418 0.13468425 -0.3198573 0.13226049
00000000: d9b9 5f3e 6338 95bc c79c 3fbe 5223 5bbd
00000010: 698a 15be 6667 7cbe 7da3 c63c adcf 603e
00000020: ad7d 963e 362e 3abe 6739 32be b06d 1cbc
00000030: 214b 30be a769 babd 2c2a 463e 8bb7 65bd
00000040: 639a 4bbc 1e38 60bd 95de 6abd b580 2c3d
00000050: fd2d 4bbe 7b23 ad3d 179c 883e 71ce 8e3d
00000060: b943 58be fd74 613e 2b4a 10bd a034 b23d
00000070: 7d7f 80be a567 0dbd 1b57 9bbe 686b 983e
00000080: 0a52 90bd 4510 0abd 341e 9d3d 2960 81be
00000090: 5dbb 1cbe da8a 033e 5fab 983d b605 f4bb
000000a0: b97f 81be bced 0c3e 2341 2f3e 8024 b0bd
000000b0: 2aa6 16be 1a68 0f3d 35c8 5bbe c1aa 3fbd
000000c0: 5596 66be 933b 83bd a65a 6bbe f19d bfbd
000000d0: 7eea 943e af3e 96bd 9918 8b3d 4d46 c2bd
000000e0: fd07 973d b673 eebd 3123 98bd 1cfd 98be
000000f0: 034e a7bd 110d 813d e922 14be 8029 2cbd
00000100: 1592 6b3e 9af2 d43c 231b 01be 83cd 033c
00000110: 1ba0 afbc 0767 efbd 2581 9abc 69f3 483e
00000120: b3f5 a7bd 34bc edbc c482 0abe f813 093e
00000130: 2f19 fd3d d3f6 49bd fd18 ecbd e3da 5fbd
00000140: 41a1 643c 44d2 d5bd 02e4 353e e0a0 7bbe
00000150: d337 33be 0b0d 78be fe66 c3bc b5cf 7b3d
00000160: b06d 36bb 0323 553d 7c06 f6bc 2099 83bd
00000170: 611a 973d cdbe ac3d cb26 853c 7c56 703d
00000180: 3094 5f3e 1594 033e 5406 81be 68b2 8dbe
00000190: 306b c23e aa45 6c3e b65a 45bd 6a36 bebe
000001a0: 4d6a 2ebe 1937 c1be e056 9d3e a870 d23e
000001b0: 66a1 c73e fe4e 35be ae84 ddbd 1b8a a5be
000001c0: d539 c6bd 8ee7 8f3e a3d9 7a3e f59f 9f3d
000001d0: 765e 9abe 28e2 59be f0c0 e73e 6063 a7bd
000001e0: 00dc 45be 707b d73d 9a55 783e a7e3 c4bd
000001f0: 3387 03be f21f 883e 98c5 9a3e 55a2 753e
00000200: eb21 dcbe d87b 76be 916d bcbd 4c13 c43e
00000210: 4eb7 833e 5715 c03e ce9b 113d 0b51 bcbe
00000220: df19 e1be df4b 1a3e 5e89 363d 4b04 83be
00000230: 290c 3fbe 0e35 703d 9bcc cf3c de8f 1ebe
00000240: a500 9cbe 26dc a53e 46bb 41bd c0dc c63e
00000250: 387e c8bd ba2f d2bd 7385 d9be f3d1 3c3e
00000260: 0ab7 833e c51e 59be b890 fd3c a498 23be
00000270: d57e da3e d4b5 dabd f639 9abe aa54 69be
00000280: 2945 79be 7927 603e 2544 04be 2a22 a3be
00000290: b2de b73e 912b a63e 721e cbbe d372 a63e
000002a0: 0c2c 133e 97af 86be b7e4 49bd bfcc b83d
000002b0: 0070 acbe d349 723e 3230 92be c54a c93e
000002c0: 6d0a 7e3e 5754 383d c3b0 d2be ff48 06be
000002d0: 5f39 bbbe ca07 59be d8e2 b73e d289 f6bd
000002e0: 5d6c b6be 6e2c a7be 5d96 9abe 95f4 b23e
000002f0: 197b 3bbd a5a3 d03d f1b1 dabd 97e6 bdbc
00000300: 3f7a a6be 463d 0e3e a384 cfbe fb5f 403e
00000310: 68a8 923d 31c4 d23e 8f14 32be 640b 44be
00000320: a0d3 a2be 7ce3 f3bd a851 853b 21cb 68bb
00000330: 5077 8e3e e354 303e a2c8 8dbd 798c 81be
00000340: ee15 573d c2db 963d 3fc0 493e 3b0b 283e
00000350: 58b0 3b3e 4b7b 66be ba98 c1bd 88bf 22bd
00000360: c323 193e c300 683e 0860 54be 1c90 4e3d
00000370: 0601 913e 808c 6d3d e54d f3bd bce4 c13c
00000380: 402d 933e 0622 80be fa13 8b3d cf27 a1bd
00000390: 1b8d a73e 87ae 9c3e 3704 4d3e 18b7 15be
000003a0: 4da3 893d 8e09 5ebe 43a1 8cbe 0f38 1abd
000003b0: 2ebd 413e 5f42 b7bd 6032 84be 3a74 9d3e
000003c0: b49f 3a3e 8eef a8be 25f8 96be ad81 a13e
000003d0: 3c64 1a3a 7ea8 8abe 7fcc 48bd ab49 5dbd
000003e0: 9495 923e 4ee1 533e ef23 ea3d ec91 a4be
000003f0: 4f38 66be abea 093e 56c4 a3be 4b6f 073e

sequential/dense/BiasAdd/ReadVariableOp:0 f4 [100]
0.06004132 0.058842715 -0.06786793 -0.059401147 -0.06735496 -0.059956443 0.06913643 0.061103307
0.0593347 -0.058635525 -0.05992488 -0.06535977 -0.060801152 0.061161917 0.059144452 0.059909526
-0.05962163 -0.08342814 0.07854103 -0.0674964 -0.08326162 0.059898283 0.05940241 -0.062064283
-0.060453903 0.06784303 0.066617236 0.06836246 -0.06817137 -0.058721095 -0.07192481 0.05904872
0.061898172 0.06479347 0.059204333 -0.061756928 -0.07043973 0.07363183 0.05978959 -0.058975562
-0.060603827 0.05906283 0.059028722 -0.059125405 -0.08167482 0.05968406 -0.06893191 0.058995426
-0.05877522 -0.060504198 -0.07230326 0.060147896 0.063271806 -0.07875736 0.061797854 -0.06248759
0.093556054 -0.07633499 -0.05924382 -0.06099445 -0.06086606 0.060837474 -0.060203653 -0.058685306
0.059473824 0.060379904 -0.060534567 0.063951395 0.06661293 -0.059239194 -0.05900813 0.06404114
-0.060519792 0.059557587 -0.06755275 0.06042052 0.09309626 0.06774785 -0.061635513 -0.05936076
-0.061110653 -0.061499618 0.06126994 -0.06580357 -0.061190102 -0.059036523 -0.062381927 0.075847834
-0.059341457 0.07855987 -0.058649935 -0.058665313 -0.06404948 0.059779387 -0.095345125 0.0605116
0.058614276 0.059664644 -0.09098783 -0.059460167
00000000: e3ed 753d 0f05 713d 57fe 8abd 9e4e 73bd
00000010: 66f1 89bd e394 75bd 6797 8d3d 7647 7a3d
00000020: f108 733d ce2b 70bd ca73 75bd 58db 85bd
00000030: a10a 79bd eb84 7a3d 7441 723d b163 753d
00000040: cf35 74bd 5fdc aabd 1fda a03d 8d3b 8abd
00000050: 1185 aabd e757 753d f14f 733d 1e37 7ebd
00000060: 839e 77bd 49f1 8a3d 9e6e 883d 9e01 8c3d
00000070: 6e9d 8bbd 8885 70bd 514d 93bd 12dd 713d
00000080: f088 7d3d 70b2 843d 3e80 723d d5f4 7cbd
00000090: b542 90bd 49cc 963d eee5 743d 5c90 71bd
000000a0: b83b 78bd deeb 713d 1ac8 713d 7b2d 72bd
000000b0: 2145 a7bd 4677 743d 2c2c 8dbd 30a5 713d
000000c0: 49be 70bd 40d3 77bd bb13 94bd a45d 763d
000000d0: a694 813d 8a4b a1bd bf1f 7d3d fdf2 7fbd
000000e0: 519a bf3d 8555 9cbd a6a9 72bd 51d5 79bd
000000f0: b14e 79bd b730 793d 1b98 76bd 0160 70bd
00000100: d39a 733d eb50 773d 18f3 77bd f3f8 823d
00000110: 5c6c 883d cca4 72bd 82b2 71bd 0028 833d
00000120: 9ae3 77bd a8f2 733d 1959 8abd 827b 773d
00000130: 41a9 be3d 63bf 8a3d 8575 7cbd 4524 73bd
00000140: 2a4f 7abd 06e7 7bbd 30f6 7a3d 06c4 86bd
00000150: 79a2 7abd 48d0 71bd 3184 7fbd 1c56 9b3d
00000160: 0710 73bd ffe3 a03d ea3a 70bd 0a4b 70bd
00000170: 602c 83bd 3bdb 743d 4e44 c3bd 03db 773d
00000180: 8615 703d ea62 743d d457 babd 818c 73bd

sequential/conv2d/Conv2D/ReadVariableOp:0 f4 [50, 1, 3, 3]
-0.087944716 -0.07349425 -0.16582127 0.032704037 0.02138754 -0.07469944 -0.08309109 -0.08801423
-0.06935472 0.11688422 -0.15492932 -0.15383841 -0.15654324 -0.18063754 -0.15442495 -0.17238763
-0.15194361 0.115552664 0.04263969 -0.025674826 0.085835464 0.14573458 -0.16463424 -0.04221795
-0.022150703 -0.42952976 -0.005871776 -0.05934841 -0.13896832 -0.024315603 -0.049209487 0.047860075
-0.010568168 -0.07706296 -0.16014645 -0.11890118 -0.03596878 -0.036327787 -0.03554135 -0.035757635
-0.0066812253 -0.033993546 -0.11241212 -0.034627877 -0.03603042 -0.036014553 -0.038856514 -0.0364879
-0.031968787 -0.11941475 -0.09552754 -0.042644195 -0.032809805 -0.041607656 -0.04960756 -0.03312912
-0.02985017 -0.032367315 -0.1945399 -0.033306208 -0.035095267 -0.030938942 -0.035009548 0.17352231
-0.24920401 0.18596245 -0.2530489 0.036450166 -0.25956276 -0.25469396 0.15902366 0.20493126
-0.061478604 -0.02813017 -0.034593586 -0.051633634 -0.023926396 -0.023846341 -0.066991776 -0.040371556
-0.050781313 0.14812922 0.1558684 0.012394175 0.13176647 0.22131917 0.1612121 0.04645979
0.19649814 0.17445253 -0.11961413 -0.106970534 -0.1324568 -0.12874494 0.14796895 -0.072854884
-0.13285768 -0.13644598 -0.122360244 -0.049861968 -0.14448002 -0.026690088 -0.1635132 -0.013182942
-0.045917846 -0.041764244 -0.028462503 -0.033333264 -0.19135503 -0.04613725 -0.046496112 -0.065313436
0.18346746 -0.053331796 -0.10495563 -0.33084807 0.22016388 -0.27927208 0.15297209 -0.26889592
-0.2797654 0.11329768 -0.28284726 0.17012446 -0.27874652 0.17089604 0.041094262 0.09071941
0.062164098 -0.10503839 0.14715977 0.120007426 0.05692015 0.05155626 0.055605453 -0.12906751
-0.118368275 -0.31715813 -0.007689381 -0.0041314927 0.16045025 0.006998216 -0.07971288 0.0122715635
-0.03377728 -0.03243385 -0.035284247 -0.03541245 -0.006108903 -0.03243203 -0.03444346 -0.03204672
-0.033739354 -0.11433227 -0.03224981 -0.031037746 -0.13792226 0.004632125 -0.035927027 -0.06650845
-0.032356948 -0.03328843 -0.17824794 -0.18322161 -0.1974956 -0.20193353 0.3078396 -0.18845627
-0.20065038 -0.18490882 -0.19019417 -0.12720002 -0.031803105 -0.039269384 -0.04642819 0.0022441961
-0.033929154 -0.034053706 -0.12801178 -0.039338443 -0.21334067 0.30793375 -0.07442316 -0.08219316
-0.03235232 0.06951205 -0.121449694 -0.02406716 -0.23986319 0.08124773 -0.05301021 -0.071022116
0.08918196 0.1564311 -0.06075232 -0.25988814 -0.040846195 -0.29277995 -0.057978593 -0.046535272
-0.04152287 -0.12925886 -0.15115517 -0.022475338 -0.013288301 -0.027280167 -0.041243132 -0.005106297
-0.25068706 -0.10442828 -0.08630327 0.14163099 0.14012624 -0.16007622 -0.23597385 0.12318683
-0.23247515 -0.23184696 -0.23229778 -0.23239094 -0.193188 -0.23127837 -0.2327378 -0.23148833
-0.2323592 -0.21832798 -0.23445939 0.100488864 0.12902547 0.056111358 -0.19490805 0.15476732
0.12489096 -0.22494805 -0.1300036 -0.12552945 -0.13151334 -0.13037473 -0.1173664 0.16210398
0.1601306 -0.1278601 -0.12801796 0.14076674 0.10300923 0.1448217 -0.21256946 0.081033915
-0.23747699 0.08520931 -0.2236469 -0.22043149 -0.06654098 -0.09020482 0.21644396 -0.5458688
00000000: 5c1c b4bd 2784 96bd 0dcd 29be abf4 053d
00000010: ec34 af3c 05fc 98bd a92b aabd ce40 b4bd
00000020: d909 8ebd fe60 ef3d cba5 1ebe d187 1dbe
00000030: df4c 20be 0cf9 38be 9321 1ebe 6286 30be
00000040: 1b97 1bbe e0a6 ec3d f5a6 2e3d 0354 d2bc
00000050: 81ca af3d 723b 153e e195 28be bbec 2cbd
00000060: 6475 b5bc 53eb dbbe 0768 c0bb 5217 73bd
00000070: b64d 0ebe 8431 c7bc e38f 49bd ed08 443d
00000080: 1c26 2dbc 2fd3 9dbd 6efd 23be 7682 f3bd
00000090: 0054 13bd 72cc 14bd ce93 11bd 9976 12bd
000000a0: 2eee dabb d13c 0bbd 5338 e6bd f6d5 0dbd
000000b0: a294 13bd ff83 13bd 0228 1fbd 5674 15bd
000000c0: b4f1 02bd b88f f4bd f1a3 c3bd aeab 2ebd
000000d0: 9363 06bd ca6c 2abd 4c31 4bbd 66b2 07bd
000000e0: 5888 f4bc 9793 04bd 7835 47be 176c 08bd
000000f0: 0ec0 0fbd aa73 fdbc 2c66 0fbd d5af 313e
00000100: 562f 7fbe f16c 3e3e a08f 81be c54c 153d
00000110: 69e5 84be 3f67 82be 19d7 223e 80d9 513e
00000120: fdd0 7bbd 3e71 e6bc 01b2 0dbd ca7d 53bd
00000130: 4a01 c4bc 6759 c3bc fc32 89bd a55c 25bd
00000140: 1100 50bd 30af 173e f79b 1f3e f010 4b3c
00000150: caed 063e 7ea1 623e c914 253e 9f4c 3e3d
00000160: cf36 493e afa3 323e 41f8 f4bd 5e13 dbbd
00000170: c1a2 07be b7d5 03be 2c85 173e f134 95bd
00000180: d80b 08be 7fb8 0bbe 0298 fabd 103c 4cbd
00000190: 92f2 13be 2ca5 dabc 0170 27be 44fd 57bc
000001a0: 5a14 3cbd fc10 2bbd 322a e9bc 7688 08bd
000001b0: 93f2 43be 6afa 3cbd b572 3ebd 0dc3 85bd
000001c0: e5de 3b3e 7172 5abd faf2 d6bd eb64 a9be
000001d0: a472 613e c0fc 8ebe b7a4 1c3e baac 89be
000001e0: 693d 8fbe 9d08 e83d 5bd1 90be 1b35 2e3e
000001f0: ddb7 8ebe 5fff 2e3e 7552 283d 19cb b93d
00000200: c89f 7e3d 5e1e d7bd 0db1 163e 74c6 f53d
00000210: 1a25 693d a82c 533d 8bc2 633d 462a 04be
00000220: 116b f2bd 8d62 a2be 34f7 fbbb 7961 87bb
00000230: 124d 243e 4a51 e53b 8240 a3bd ab0e 493c
00000240: 0c5a 0abd 5bd9 04bd 3786 10bd a50c 11bd
00000250: 312d c8bb 73d7 04bd 9614 0dbd 6c43 03bd
00000260: 4732 0abd 0a27 eabd 6018 04bd df42 febc
00000270: 7e3b 0dbe 15c9 973b 3828 13bd 9535 88bd
00000280: b888 04bd 7359 08bd a186 36be 729e 3bbe
00000290: 493c 4abe aac7 4ebe 279d 9d3e aefa 40be
000002a0: 4b77 4dbe bd58 3dbe 43c2 42be b940 02be
000002b0: f943 02bd efd8 20bd 7c2b 3ebd 5d13 133b
000002c0: 4cf9 0abd e67b 0bbd 8515 03be 5921 21bd
000002d0: fa75 5abe 7ea9 9d3e 2b6b 98bd e354 a8bd
000002e0: de83 04bd 555c 8e3d 9eba f8bd 7e28 c5bc
000002f0: b29e 75be 3665 a63d 3c21 59bd 0b74 91bd
00000300: 08a5 b63d 792f 203e 6dd7 78bd 0f10 85be
00000310: 574e 27bd 41e7 95be f67a 6dbd c59b 3ebd
00000320: e313 2abd 6f5c 04be 6cc8 1abe 331e b8bc
00000330: 2db7 59bc a87a dfbc 8fee 28bd b952 a7bb
00000340: 0e5a 80be 7ede d5bd c5bf b0bd b707 113e
00000350: 417d 0f3e 05eb 23be 21a3 71be 6049 fc3d
00000360: f70d 6ebe 4a69 6dbe 78df 6dbe e4f7 6dbe
00000370: 13d3 45be 3dd4 6cbe d152 6ebe 470b 6dbe
00000380: 92ef 6dbe 5f91 5fbe 1f16 70be 1bcd cd3d
00000390: 411f 043e 06d5 653d fa95 47be 537b 1e3e
000003a0: d5c6 ff3d c858 66be aa1f 05be cb8a 00be
000003b0: 6fab 06be f480 05be cc5d f0bd 96fe 253e
000003c0: 47f9 233e c2ed 02be 2417 03be 2825 103e
000003d0: 81f6 d23d 244c 143e cfab 59be 1cf5 a53d
000003e0: 2b2d 73be 3882 ae3d b103 65be cbb8 61be
000003f0: a346 88bd 4ebd b8bd 7ca3 5d3e 0fbe 0bbf

sequential/conv2d/BiasAdd/ReadVariableOp:0 f4 [50]
0.10961723 0.19065243 0.15938115 0.0881726 0.10552512 0.10650567 0.0970986 0.11067868
0.1099604 -0.012515473 0.09816569 0.10610042 0.09277893 0.11490436 -0.046456113 0.07116496
0.100374505 0.09406575 0.08120512 0.10527901 0.13118139 0.11283033 0.09264745 0.09678916
0.6950783 0.120321706 0.09508848 0.13379812 0.13548093 0.08627398 0.16923001 0.10652842
0.09029344 -0.29666898 0.11981631 0.091560245 0.08873816 -0.06134217 0.105075315 0.06893003
0.14363074 0.07446237 0.16297233 0.17933095 0.09680843 0.080138326 0.08777117 0.09820617
0.08738132 0.09082318
00000000: 007f e03d 643a 433e d034 233e d693 b43d
00000010: 8e1d d83d a51f da3d a1db c63d 81ab e23d
00000020: eb32 e13d b30d 4dbc 180b c93d 2d4b d93d
00000030: e102 be3d fa52 eb3d c448 3ebd efbe 913d
00000040: 2691 cd3d 8ba5 c03d df4e a63d 869c d73d
00000050: 6a54 063e 9713 e73d f2bd bd3d 6539 c63d
00000060: a7f0 313f 3a6b f63d c0bd c23d 6002 093e
00000070: 83bb 0a3e 6ab0 b03d a24a 2d3e 922b da3d
00000080: c4eb b83d ffe4 97be 4162 f53d f083 bb3d
00000090: 5abc b53d ed41 7bbd ba31 d73d 302b 8d3d
000000a0: f013 133e ba7f 983d 38e2 263e 88a2 373e
000000b0: 8043 c63d 901f a43d 5fc1 b33d 5120 c93d
000000c0: faf4 b23d 8101 ba3d
